Model/model_ddqn_episode.pth (torch, 210258 bytes, 10 tensors)

fc1.weight f4 [128, 3]
0	0xbe895863	-0.26825246
1	0xbeb8ce88	-0.3609507
2	0xbee66d46	-0.45005244
3	0x3e8b56fe	0.27214807
4	0x3e973c58	0.29538226
5	0xbe36bc78	-0.17845333
6	0xc0c3afef	-6.1152263
7	0xbf37d498	-0.7180877
8	0x3de0697b	0.10957619
9	0xbe9dec42	-0.30844313
10	0xbf6228b3	-0.8834335
11	0x3f011ab5	0.50431377
12	0xc082cd9c	-4.087599
13	0xbd6118f0	-0.054955423
14	0xbf1ec55a	-0.62019885
15	0xc103c092	-8.234514
16	0xbf89a2d6	-1.0752819
17	0xbe0c4b1a	-0.13700524
18	0x3e977220	0.29579258
19	0xbbb86d00	-0.005628228
20	0xbf105a03	-0.56387347
21	0x3ec13cfe	0.37741846
22	0xbf030869	-0.5118471
23	0x3dd473d0	0.10373652
24	0x3d998d28	0.074976265
25	0xbe6b7bd0	-0.2299645
26	0xbe7531ca	-0.23944774
27	0xc071b17b	-3.7764575
28	0x3dd2a56c	0.10285458
29	0x3d9d5eba	0.07684083
30	0xbec40b00	-0.38289642
31	0xbdac6b30	-0.08418882
32	0xbe74e518	-0.23915517
33	0xbe636cb4	-0.22209436
34	0x3def1580	0.11674023
35	0x3e2e0e9c	0.1699776
36	0xc0ad59b5	-5.4172006
37	0xc01a70d3	-2.4131362
38	0x3effaa44	0.4993459
39	0xc002bf5b	-2.0429294
40	0xbd32678d	-0.043555785
41	0xbf177038	-0.5915561
42	0x400205f3	2.031613
43	0x3ecdfe15	0.40232912
44	0xbe98e44a	-0.2986167
45	0x3ea277da	0.31732064
46	0xbd0e16c0	-0.034689665
47	0xbe8dee62	-0.27720934
48	0x3cadf580	0.021235228
49	0xbe2ceae8	-0.16886485
50	0xbd1700a0	-0.03686583
51	0x3f737b7d	0.95110303
52	0xc0f312b8	-7.596035
53	0xbf708eb7	-0.93967766
54	0xc07ca8df	-3.947807
55	0xbdcf3fb1	-0.1011957
56	0xbe4b8a4d	-0.19876976
57	0xc085544c	-4.16654
58	0x40151ee0	2.3300095
59	0x3ed7f75c	0.42180908
60	0x3f00cd0b	0.5031287
61	0x3ee86b8e	0.45394558
62	0x3dd9d5c5	0.106364764
63	0xbed89dbe	-0.42307848
64	0xbe46b15e	-0.19403598
65	0xbeef4f3e	-0.46740144
66	0xbf0005fe	-0.50009143
67	0xbcc87580	-0.02447009
68	0xbeb7519a	-0.35804445
69	0x3e494868	0.19656527
70	0x3e560734	0.20901185
71	0xbe8ef678	-0.27922416
72	0xc0f9e091	-7.808663
73	0xbf20238c	-0.6255424
74	0xbf2c9e73	-0.67429274
75	0x3e75c8b1	0.24002339
76	0x3e74ebbc	0.2391805
77	0x3e14a8f1	0.14517571
78	0xc14703be	-12.438414
79	0x3eeb9608	0.46012902
80	0x3f00e99f	0.5035648
81	0xbf139574	-0.5764992
82	0x3e1adbb4	0.15122873
83	0xbf116e3d	-0.56808835
84	0xbf03b5b2	-0.5144912
85	0xbe9a8d82	-0.30186087
86	0xbe762ae2	-0.24039796
87	0xc1268612	-10.407732
88	0xbea48c55	-0.32138315
89	0xbeaee729	-0.34160736
90	0xc0cf275a	-6.4735537
91	0x3fd8bac2	1.6931994
92	0x3e94231a	0.2893303
93	0x401c29ed	2.440059
94	0x3f238445	0.638737
95	0x3e1a86cb	0.15090482
96	0xbe5f1e20	-0.21788836
97	0x3ed3faf2	0.41402394
98	0xbef9bd65	-0.4877731
99	0xc0476796	-3.1156974
100	0x3f0e8747	0.55675167
101	0xbf6e45a2	-0.93075
102	0xc021723c	-2.5225973
103	0x3d2acc02	0.041698463
104	0xbe355e5a	-0.17711774
105	0x40e42fbb	7.1308265
106	0x4025bfbc	2.5898275
107	0xbf3f4da5	-0.7472785
108	0xc09f6834	-4.98147
109	0xc0cca467	-6.3950686
110	0x3ee4d701	0.44695285
111	0xbecdacb8	-0.40170836
112	0xbf0559af	-0.5208997
113	0x3e4fa83c	0.2027902
114	0xc101ec10	-8.120132
115	0x3ecd8f4b	0.40148386
116	0xbe28e199	-0.16492309
117	0x3f11b14c	0.5691116
118	0xbd71ed40	-0.05906415
119	0xbe8427d3	-0.25811633
120	0xc125b02b	-10.35551
121	0xbe70709c	-0.23480457
122	0x3e258ae0	0.16166258
123	0xbda02270	-0.078190684
124	0x3d5fb350	0.054614365
125	0xbd8efcf8	-0.06981844
126	0xc0334b8a	-2.8014855
127	0xbd09cb05	-0.03364088
128	0x3e5933f0	0.21211219
129	0xbd0feb90	-0.03513676
130	0x3c292940	0.010324776
131	0xbef7f7ce	-0.48431247
132	0xc0cd2e70	-6.4119186
133	0xbe33b94f	-0.17551158
134	0xbf0af96f	-0.54286855
135	0xc0d04bec	-6.509268
136	0xbf36e7c6	-0.7144741
137	0xbf746a4b	-0.9547469
138	0x3ef91005	0.48645034
139	0x3ea057ee	0.31317085
140	0xbf08b34d	-0.5339859
141	0xc0a2aa49	-5.083287
142	0x3e0e4a24	0.1389547
143	0x3d7f5770	0.062339246
144	0xc0ed1913	-7.409311
145	0xbf948e4b	-1.1605924
146	0xbec700e9	-0.38867882
147	0xc0af5a58	-5.4797783
148	0xbf065d14	-0.52485776
149	0xbdfe7a58	-0.12425679
150	0xc0d44c81	-6.634339
151	0xbf6f8e4f	-0.9357652
152	0xbea9a8dc	-0.33136642
153	0xc1d0eead	-26.11654
154	0xbd9d6831	-0.076858886
155	0xbdee15dc	-0.11625263
156	0xc0b2816e	-5.5782995
157	0xbef6c362	-0.4819594
158	0xbf182972	-0.5943824
159	0x3f2c82be	0.67386997
160	0x4028b7dd	2.6362221
161	0xbff2f6fb	-1.8981622
162	0xc0801935	-4.003077
163	0xbe45562c	-0.19271153
164	0x3d9c4c0f	0.076316945
165	0x3f0dad16	0.55342233
166	0xbe45e24c	-0.19324607
167	0xbe8b85db	-0.2725056
168	0xbc0d32f9	-0.00861811
169	0x3d1f2d7b	0.038861733
170	0xbf7c9ea3	-0.9867956
171	0xc0efe1e2	-7.4963236
172	0xbfc2f771	-1.5231763
173	0xbe525a6c	-0.20542306
174	0xbeb5d756	-0.3551585
175	0xbef1d306	-0.4723131
176	0x3ed98228	0.42482114
177	0xc102b7f8	-8.169914
178	0xbf4b1276	-0.79325044
179	0xbe61b33e	-0.22041032
180	0xc0c58ed2	-6.173684
181	0xbf9df085	-1.2339026
182	0x3fa71daf	1.3055934
183	0x3e741dfc	0.23839563
184	0xbd7c1950	-0.061547577
185	0xbeb1992e	-0.3468718
186	0x3f052f8c	0.52025676
187	0x3c8c9fa0	0.017165959
188	0xbd908fb0	-0.07058656
189	0xc09c7cba	-4.8902254
190	0xbfd7606f	-1.6826304
191	0xbdebe007	-0.11517339
192	0xc0786734	-3.881299
193	0xbe364810	-0.17800927
194	0xbf070b81	-0.5275193
195	0xc0f2ffd2	-7.593728
196	0xbf5cc3dd	-0.86236364
197	0xbf3447f5	-0.704223
198	0x3ee2b638	0.44279647
199	0xbdd301d4	-0.10303083
200	0xbeb3764c	-0.3505119
201	0xbf93b6a7	-1.1540116
202	0x3e952c54	0.29135382
203	0xbe95593b	-0.2916964
204	0xc09c07c3	-4.8759475
205	0xbe2bc6b0	-0.16775012
206	0x3e105ae2	0.14097169
207	0x3ec25a58	0.37959552
208	0x3e7290cc	0.23688048
209	0x3c99ab00	0.018758297
210	0xc0dfc1b1	-6.992394
211	0xc07381e9	-3.804804
212	0xbc3b41b1	-0.011429236
213	0xc0d47176	-6.63885
214	0xc00c0974	-2.188077
215	0x3faab38b	1.3336042
216	0xc15e3418	-13.887718
217	0x3dd5796d	0.10423551
218	0xbe62d6cb	-0.2215225
219	0xc0ebd398	-7.3695793
220	0x3d87a8a2	0.06623961
221	0xbecc8ba4	-0.39950287
222	0xbeb7f216	-0.35926884
223	0xbef0bf3a	-0.47020894
224	0x3c2d4b00	0.010576963
225	0xc0723f19	-3.7851012
226	0xbe4ced69	-0.2001244
227	0xbf321af9	-0.69572407
228	0x3d649f31	0.05581588
229	0xbe7627d8	-0.24038637
230	0x3f0ed543	0.5579416
231	0x3e58481c	0.21121258
232	0xbed12abf	-0.40852925
233	0x3e22f6a8	0.15914404
234	0xc0fa2939	-7.817532
235	0x3ec4ef93	0.3846403
236	0xbf75a325	-0.95952064
237	0xc030513c	-2.7549582
238	0xbb692af5	-0.0035578583
239	0x3df69178	0.12039465
240	0xc0835ef1	-4.1053395
241	0xbe3a16bd	-0.18172736
242	0xbda9b997	-0.082873516
243	0xbe5b765e	-0.21431872
244	0xbde4b590	-0.11167443
245	0x3d3d8e80	0.046278477
246	0xbe38ac58	-0.18034494
247	0x3edce5c4	0.43144047
248	0xbf05f463	-0.5232603
249	0x3e1a4870	0.15066695
250	0xbe5cd628	-0.21566069
251	0xbe98fd2d	-0.29880658
252	0x3f03d408	0.5149541
253	0xbe5d0bb4	-0.21586496
254	0x3dfebca8	0.12438327
255	0x3e91bb68	0.28463292

fc1.bias f4 [128]
0	0xbd6f68d0	-0.058449566
1	0xbf0bcb4d	-0.5460709
2	0xbd18d908	-0.037316352
3	0xbe96e737	-0.29473278
4	0x3d3dcda8	0.046338707
5	0x3d9daab5	0.076985754
6	0xbec8b92c	-0.39203775
7	0xbe0c1d30	-0.13683009
8	0xbe9c2796	-0.30498952
9	0xbe0cf8ce	-0.13766786
10	0xbe7c813c	-0.24658674
11	0xbedd2f66	-0.43200225
12	0x3f7f895c	0.9981897
13	0x3d2516a9	0.040304814
14	0xbef2a22c	-0.47389352
15	0xbebcf2c2	-0.3690396
16	0xbe7dd17c	-0.24786943
17	0x3e371336	0.17878422
18	0x3d31a9a4	0.043374673
19	0xbf90761b	-1.1286043
20	0xbf07ee02	-0.53097546
21	0xbeb0b496	-0.34512776
22	0xbe19be66	-0.15014037
23	0xbf07a8a9	-0.5299173
24	0x3e7971d7	0.24359833
25	0xbecab141	-0.3958836
26	0x3d9d8a77	0.07692426
27	0xbd8ab5f4	-0.06772986
28	0xbed26e04	-0.4109956
29	0x3dfe3a3b	0.1241345
30	0xbf936a6e	-1.1516855
31	0xbf5ebab4	-0.87003636
32	0xbf0305da	-0.51180804
33	0xbe9f52c7	-0.31117842
34	0xbc97df6b	-0.018539151
35	0xbf1d45dc	-0.6143472
36	0x3f59d26f	0.8508672
37	0xbeab101c	-0.33410728
38	0xbe9c25bb	-0.30497536
39	0xbf0d16f8	-0.5511317
40	0xbdd101b0	-0.102054
41	0xbed21cf2	-0.4103771
42	0xbe34d767	-0.17660294
43	0xbf098f68	-0.53734446
44	0x3dacedf5	0.08443824
45	0x3e92fc10	0.28707933
46	0xbe84ece2	-0.25961977
47	0xbe26c0dc	-0.16284508
48	0x3e426cf3	0.18986873
49	0x3d7dc5e9	0.06195632
50	0x3e25c09a	0.16186753
51	0x3f1c85af	0.61141485
52	0x3e4452a3	0.19172148
53	0xbf943abd	-1.1580426
54	0xbd13d4bd	-0.036091555
55	0xbe55e93e	-0.20889756
56	0x3ca2fa07	0.019894613
57	0x3deccc97	0.1156246
58	0xbed16c3e	-0.40902895
59	0x3de277ab	0.11057981
60	0x3c87325e	0.01650351
61	0xbea9e5f1	-0.33183244
62	0xbe170192	-0.14746693
63	0x3d9f666b	0.077832066
64	0x3dacdbca	0.08440359
65	0x3e880261	0.26564315
66	0xbdc54dd8	-0.09633988
67	0xbe2b43e2	-0.16725114
68	0xbdc447f0	-0.095840335
69	0xbef9753a	-0.4872225
70	0x3d874d1b	0.066065036
71	0x3b158bd4	0.002281894
72	0x3f25ce8f	0.6476831
73	0xbce504ac	-0.02795633
74	0xbd9de828	-0.07710296
75	0x3dc94226	0.0982707
76	0xbee0c2d5	-0.43898645
77	0xbec898e1	-0.39179137
78	0x3f428f07	0.7599949
79	0xbdd0885d	-0.10182259
80	0x3d217735	0.039420325
81	0xbf01e88b	-0.5074546
82	0xbf05d110	-0.5227213
83	0xbf0f09b9	-0.5587421
84	0xbef8338b	-0.48476824
85	0xbe536ec4	-0.20647722
86	0xbe9612e4	-0.29311287
87	0xbf5c57dd	-0.8607157
88	0xbd2351b0	-0.039872825
89	0x3eba7751	0.36419156
90	0xbeeca5da	-0.46220285
91	0xbec6142b	-0.38687262
92	0xbde74bb8	-0.11293739
93	0xbec56386	-0.38552493
94	0x3df20992	0.11818232
95	0xbd986c57	-0.07442539
96	0xbdcb4cda	-0.09926768
97	0xbdae5d91	-0.0851394
98	0xbebc4cca	-0.36777335
99	0xbd920573	-0.071299456
100	0x3d0da0d6	0.034577213
101	0x3da716f1	0.081586726
102	0xbe98830a	-0.29787475
103	0x3f187976	0.59560335
104	0xbee28919	-0.44245222
105	0xbecc1c9c	-0.39865577
106	0xbeda8598	-0.4268005
107	0xbc61c640	-0.013780177
108	0xbad7c858	-0.0016462905
109	0xbf0b926e	-0.5452031
110	0xbc74a1ea	-0.014931181
111	0xbebb6937	-0.3660371
112	0xbd9c758a	-0.07639606
113	0xbe85ae18	-0.26109385
114	0x3dc80572	0.097666636
115	0x3e0f5d31	0.14000393
116	0x3d632b86	0.05546143
117	0xbf0a8a7f	-0.5411758
118	0x3e85ea48	0.26155305
119	0xbf0f9d3e	-0.5609931
120	0xbeac0486	-0.335972
121	0x3e725443	0.23664956
122	0x3e137831	0.14401318
123	0xbdaa6454	-0.08319917
124	0xbe8d52d5	-0.27602258
125	0xbc251d40	-0.0100777745
126	0xbed3c8ff	-0.41364285
127	0x3d98a093	0.07452502

fc2.weight f4 [128, 128]
0	0xbaa82f00	-0.001283139
1	0x3d3a25c2	0.045446165
2	0xbdaa6680	-0.083203316
3	0xbf01da44	-0.5072367
4	0xbd38ec74	-0.045147374
5	0xbf1b922b	-0.6076991
6	0xbaa88880	-0.0012858063
7	0xbc2b83f8	-0.0104684755
8	0x3b45f820	0.0030207708
9	0xbbb4b338	-0.0055145286
10	0x3c02f578	0.007993095
11	0xbd732a42	-0.059366472
12	0xbc1ac536	-0.009446433
13	0xbd81b3ad	-0.063330986
14	0xbe945285	-0.28969207
15	0xbd384eb4	-0.044996932
16	0x3c8deee0	0.017325819
17	0xbf78f04e	-0.97241676
18	0xbd819444	-0.063271075
19	0xbdb5d3b6	-0.08878271
20	0x3dba93c9	0.09110219
21	0xbc04efc8	-0.008113809
22	0xbd446c16	-0.04795464
23	0xbda023b4	-0.0781931
24	0x3d5b9df9	0.05361745
25	0xbe0ddcab	-0.1385371
26	0x3e133632	0.14376143
27	0x3ba11795	0.0049161413
28	0xbd9d4aa3	-0.076802514
29	0xbdecca8b	-0.115620695
30	0xbdae5814	-0.08512893
31	0xbf3da6fd	-0.7408293
32	0x3d8b424b	0.06799754
33	0xbfaeff81	-1.3671724
34	0xbc8fb55a	-0.01754253
35	0xbf3032e0	-0.6882763
36	0xbf88dd55	-1.0692545
37	0xbd416340	-0.047213793
38	0xbdbda6c0	-0.09260321
39	0xbc05ed50	-0.0081742555
40	0xbe70fe4d	-0.23534508
41	0x3aa1b380	0.001233682
42	0x3da4b1a6	0.08041696
43	0xbd8af304	-0.06784633
44	0x3d80dbb8	0.06291908
45	0xbede4af5	-0.43416563
46	0x3db4da98	0.08830756
47	0xbd25137d	-0.04030179
48	0x3e57aeb8	0.21062744
49	0xbd633c7c	-0.055477604
50	0xbdcddd36	-0.10051958
51	0x3d06e508	0.032933265
52	0xbf25b332	-0.64726555
53	0xbf94ac70	-1.1615124
54	0xbc8e1b7c	-0.01734709
55	0xbd81962a	-0.0632747
56	0xbdac1f86	-0.0840445
57	0xbf924bff	-1.1429442
58	0x3daa6cc9	0.0832153
59	0x3e463ce1	0.19359161
60	0xbe374178	-0.17896068
61	0xbc4de248	-0.012566157
62	0xbd058886	-0.032600902
63	0xbf100405	-0.56256133
64	0x3d20dc5d	0.039272655
65	0xbe26cbf0	-0.16288733
66	0x3c9d64d8	0.019213125
67	0xbd04bbcd	-0.032405663
68	0x3d8d2cb5	0.06893293
69	0xbd54f3fd	-0.051990498
70	0xbedc5790	-0.43035555
71	0xbe4c30d3	-0.199405
72	0xbd48c87e	-0.04901933
73	0xbcba1708	-0.02271606
74	0x3c8ffe78	0.017577395
75	0xbd69b5bf	-0.057058092
76	0xbd13fc3a	-0.036129214
77	0x3d9d6637	0.076855116
78	0x3c2b33a2	0.010449322
79	0x3c513457	0.012768826
80	0x3cb8e929	0.022572117
81	0x3da62fc5	0.0811458
82	0xbc8b1694	-0.01697854
83	0xbda2af9e	-0.079436526
84	0x3cd74f08	0.026282802
85	0xbc6ab520	-0.01432541
86	0xbd1620d2	-0.036652394
87	0xbdb71552	-0.089396134
88	0xbcf32e14	-0.029685058
89	0xbda55b94	-0.08074108
90	0xbd7e1f80	-0.06204176
91	0xbdbc42c5	-0.09192423
92	0xbccbe9ee	-0.02489182
93	0xbc9b2ef0	-0.01894328
94	0xbeb513a7	-0.35366556
95	0xbcf6f83c	-0.030147664
96	0xbe03ed92	-0.12883595
97	0x3db0db26	0.08635549
98	0xbd8f8419	-0.070076175
99	0xbbf058d4	-0.007334808
100	0x3d1abdb0	0.037778556
101	0xbd2bcc15	-0.041942675
102	0xbd5ed555	-0.054402668
103	0x3c84c578	0.016207442
104	0x3d65ea7d	0.05613183
105	0xbd39b8be	-0.0453422
106	0x3d90fc0d	0.07079325
107	0x3b94e780	0.0045441985
108	0x3e294fe5	0.16534384
109	0xbcecf486	-0.028925192
110	0x3d42dac2	0.047571905
111	0x3d96ff75	0.07372943
112	0xbd150518	-0.03638181
113	0xbd29d410	-0.041462004
114	0xbd8db82a	-0.06919892
115	0x3ec241d8	0.3794086
116	0xbe1a8304	-0.15089041
117	0xbcd338ec	-0.025783978
118	0xbeb3f631	-0.35148767
119	0x3cfa2db0	0.030539364
120	0xbb51ff80	-0.003204316
121	0x3cc15162	0.023598377
122	0xbd2bbfdb	-0.041931015
123	0xbd085202	-0.033281334
124	0x3e4d7aab	0.20066325
125	0xbdad7add	-0.084707
126	0xbccaf710	-0.024776012
127	0xbe5953d0	-0.21223378
128	0x3b24cf20	0.002514787
129	0x3b6c38e0	0.0036044642
130	0x3d910f78	0.070830286
131	0xbf004f14	-0.50120664
132	0xbd7bcd05	-0.06147482
133	0x3f0cb0da	0.54957354
134	0xbd894180	-0.06701946
135	0x3d0e8858	0.034797996
136	0x3d6d1d26	0.057889126
137	0x3d753f2d	0.059874702
138	0xbce4ba30	-0.027920812
139	0xbcf3d960	-0.029766738
140	0xc046c35d	-3.105674
141	0xbd6910a5	-0.05690064
142	0xbdd8a285	-0.10577873
143	0x3d2707fe	0.040779106
144	0xbd85a727	-0.065260224
145	0x3ea33807	0.31878683
146	0x3dad2e20	0.08456063
147	0xc1169250	-9.410721
148	0x3d25b1b7	0.040452685
149	0xbca76584	-0.020434149
150	0xbd63dbe9	-0.055629645
151	0xbd095c4c	-0.033535287
152	0x3e904ada	0.28182107
153	0xbe17d1b6	-0.14826092
154	0x3dfaaa7a	0.12239547
155	0xbc4a4eaa	-0.012347857
156	0x3d0257ba	0.031821944
157	0xbcac747a	-0.021051634
158	0xbf890970	-1.0706005
159	0xbf356da8	-0.7087045
160	0xbda88fad	-0.08230529
161	0xbfabe1c4	-1.3428273
162	0xbd0bf110	-0.034165442
163	0xbf7d258e	-0.9888543
164	0xbfca8146	-1.5820701
165	0xbd815f6b	-0.06317028
166	0xbdd93926	-0.10606603
167	0x3d4735ea	0.0486354
168	0xbdea5244	-0.11441472
169	0xbb1219c0	-0.002229318
170	0xbd9938a7	-0.07481509
171	0xbd986e21	-0.074428804
172	0x3dafce79	0.085843034
173	0x3c64917f	0.013950705
174	0x3e120d10	0.14262795
175	0x3b68edf9	0.0035542233
176	0x3e83b773	0.25725898
177	0x3920596a	0.00015292098
178	0x3e1e0213	0.15430479
179	0xbfbb0bc2	-1.4612963
180	0xbf2ccca5	-0.6749976
181	0xc11b8f1e	-9.722441
182	0x3dedf8ba	0.116197065
183	0x3db1ba21	0.086780794
184	0x3cd28af7	0.02570103
185	0xbdee5dbe	-0.11638974
186	0x3db4e1f9	0.08832163
187	0x3ebaaffa	0.36462384
188	0xbeb9146d	-0.36148396
189	0xbdace113	-0.08441367
190	0x3d41537e	0.047198765
191	0xbedd7b6e	-0.43258232
192	0xbcbcd033	-0.023048496
193	0xbee80458	-0.45315814
194	0x3d4a4112	0.049378462
195	0xbc25b8e8	-0.010114886
196	0x3d65a1f9	0.056062672
197	0x3d1be616	0.038061224
198	0x3eb9be1e	0.3627786
199	0xc02f2073	-2.7363555
200	0x3f8779fa	1.0584099
201	0x3c9bae99	0.019004153
202	0xbca47cc8	-0.020079032
203	0xbd1fbbb8	-0.038997382
204	0x3c510483	0.012757423
205	0xbdb37873	-0.08763208
206	0x3f388d9e	0.7209109
207	0x3cf72160	0.030167282
208	0x3d0d5dfa	0.03451345
209	0x3b20ee20	0.0024555996
210	0x3b42d580	0.0029729307
211	0xbd6d3c98	-0.057919115
212	0xbce15f8a	-0.027511377
213	0x3d941a49	0.07231576
214	0x3c0eb9d0	0.008711293
215	0xbf0fd9bd	-0.5619162
216	0xbb931790	-0.004488893
217	0x3e3ee5d6	0.18642363
218	0xbceea1a6	-0.029129814
219	0xbd317be0	-0.043331027
220	0xbdaadf16	-0.083433315
221	0xbda09530	-0.07840955
222	0x3d3b9222	0.04579366
223	0x3dcdcaf7	0.10048478
224	0xbd312769	-0.043250475
225	0x3de88463	0.11353376
226	0xbd9e2611	-0.07722104
227	0x3d9e830e	0.077398404
228	0x3d9ed9c8	0.07756382
229	0x3c57a49b	0.013161804
230	0xbb3f1540	-0.0029156953
231	0x3fdd0cc4	1.7269521
232	0xbe74e2b5	-0.23914607
233	0x3c4379e8	0.01193092
234	0xbda66a11	-0.08125699
235	0xbc582928	-0.013193406
236	0x3e3037c3	0.17208771
237	0x3b492cc0	0.003069684
238	0x3d39e75b	0.045386653
239	0x3b565f60	0.0032710657
240	0x3cc87af1	0.024472686
241	0x3cca96ac	0.02473005
242	0xbd483af4	-0.048884347
243	0x3ed86853	0.42267093
244	0x3dc2d112	0.09512533
245	0xbd0d751a	-0.034535505
246	0xbe462c32	-0.19352797
247	0xbd587403	-0.052845012
248	0x3da30c3f	0.0796132
249	0xbf554cff	-0.8332061
250	0x3d63d726	0.055625103
251	0x3d1a59b2	0.037683196
252	0x3e002e42	0.12517646
253	0x3ccd75d0	0.025080591
254	0xbbb316e0	-0.0054653734
255	0xbe5b87d3	-0.21438532

fc2.bias f4 [128]
0	0xbca6cf0a	-0.020362396
1	0x3eee9fcc	0.4660629
2	0xbd039104	-0.03212072
3	0xbe532c52	-0.20622376
4	0xbc09709e	-0.008388666
5	0xbdf7be08	-0.120967925
6	0xbe2551e3	-0.16144519
7	0x3eb721dd	0.35768023
8	0xbfd0fb24	-1.6326642
9	0x3f250230	0.6445646
10	0xbd9f0cc9	-0.077661105
11	0xbd874e97	-0.06606787
12	0x3faaa55b	1.3331712
13	0xbe6448b1	-0.22293355
14	0x3fafdc80	1.3739166
15	0xbd66c24d	-0.056337643
16	0xbf8024c6	-1.0011222
17	0xbe0c1e74	-0.13683492
18	0x3dfb3fa0	0.12267995
19	0x3d4a0a67	0.049326327
20	0xbdb77a28	-0.08958846
21	0xbc55d0ab	-0.013050239
22	0xbd5bb728	-0.05364147
23	0xbda24c0d	-0.07924662
24	0xbd440aa8	-0.047861725
25	0xbda6f919	-0.0815298
26	0xbebef3a7	-0.37295267
27	0xbde32626	-0.110912606
28	0xbd92cb01	-0.07167626
29	0xbc90a9d7	-0.017659111
30	0x3ec4c84c	0.38434064
31	0x3f9bd1f4	1.2173448
32	0x3f8faa3b	1.1223825
33	0x3e8a3286	0.2699167
34	0x3bd667c2	0.0065431306
35	0x3c02b315	0.007977267
36	0xbfe96547	-1.8234032
37	0xbdc983fe	-0.09839629
38	0x3f140caf	0.57831854
39	0xbdffb4c3	-0.124856494
40	0xbe108d3a	-0.14116374
41	0x3f606f4f	0.87669843
42	0xbf58ded6	-0.8471502
43	0x3dd91969	0.1060055
44	0xbdca2809	-0.09870917
45	0xbd72f717	-0.059317674
46	0x3ecd1a74	0.40059245
47	0x3c90c673	0.017672753
48	0xbd0eb321	-0.0348388
49	0x3d801ea6	0.06255846
50	0xbdec314a	-0.11532839
51	0x3ea601dd	0.32423297
52	0xbdbb873d	-0.09156654
53	0x3cf16688	0.029467836
54	0x3efca7f6	0.49346894
55	0x3fbce723	1.4758037
56	0xbdee9a19	-0.116504855
57	0x3f4c135a	0.7971703
58	0xbd2266b4	-0.039648727
59	0xbc305847	-0.010763234
60	0x3fbdf241	1.4839555
61	0xbd6a3352	-0.05717785
62	0xbf14bed7	-0.581037
63	0xbecbdee5	-0.39818493
64	0xbc9dad68	-0.019247726
65	0xbd648758	-0.055793136
66	0xbbe819bc	-0.007083146
67	0xbd590b0c	-0.05298905
68	0x3ecde47e	0.40213388
69	0xbdb4e45f	-0.08832621
70	0xbee8443c	-0.4536456
71	0xbdaae355	-0.083441414
72	0xbe9f534b	-0.31118235
73	0x3e606de6	0.21916923
74	0x3fc70847	1.5549401
75	0x40044adf	2.0670698
76	0x3e90ee60	0.28306866
77	0xbda72385	-0.08161072
78	0x3e84b12f	0.2591643
79	0xbdadf6ae	-0.08494316
80	0xbdb0dfdb	-0.08636447
81	0xbd2f140f	-0.04274374
82	0xbdf3098d	-0.11867056
83	0xbd53d213	-0.051714014
84	0x3e27891b	0.16360895
85	0xbf993d86	-1.19719
86	0xbe43ce39	-0.19121636
87	0xbd1f5dab	-0.038907688
88	0xbe794c95	-0.2434562
89	0xbd4c80b2	-0.04992742
90	0xbc9d5465	-0.019205282
91	0xbd9ad42e	-0.07560001
92	0x3fb78879	1.4338523
93	0xbc2e4616	-0.010636827
94	0xbdc46a31	-0.09590567
95	0x3d3b8e64	0.04579009
96	0x3b94d78d	0.004542297
97	0x3e9b877d	0.30376807
98	0x3f8293ba	1.0201333
99	0x3f49e4b7	0.78864616
100	0xbd970be0	-0.07375312
101	0xbc939538	-0.018015489
102	0xbd4a7ec9	-0.049437318
103	0xbdb6447d	-0.08899782
104	0x3f68fa1d	0.9100664
105	0xbd35e75b	-0.04441009
106	0xbdf45a5c	-0.11931297
107	0xbd9375e0	-0.07200217
108	0xbcb7f2ce	-0.022454645
109	0x3f0b5ffa	0.54443324
110	0xbf8928d2	-1.0715582
111	0xbd8e2218	-0.069400966
112	0xbe9863c5	-0.29763618
113	0x3f757e30	0.9589567
114	0x3f3d5113	0.73951834
115	0xbc826e80	-0.015921831
116	0x3f9704dc	1.1798358
117	0xbd01eb50	-0.031718552
118	0xbda47994	-0.08031002
119	0x3f89cda4	1.0765882
120	0xbeb70ff7	-0.35754368
121	0xbe0e2696	-0.13881907
122	0x3f56ac27	0.83856434
123	0xbd9312c0	-0.07181311
124	0xbdeebcb6	-0.116570875
125	0xbdb84fc4	-0.08999589
126	0xbc33a8e0	-0.010965556
127	0xbda465b2	-0.08027209

fc3.weight f4 [128, 128]
0	0x3c2f7cfe	0.010710953
1	0xbd3ae265	-0.045626063
2	0x3dd086b1	0.1018194
3	0x3dabdcc7	0.08391719
4	0xbcc8b04c	-0.024498127
5	0x3d91eb7d	0.07124994
6	0xbe00bab8	-0.12571228
7	0xbe13f577	-0.14449106
8	0xbe95829a	-0.29201204
9	0x3cc10062	0.023559753
10	0xbc6bd9b0	-0.014395162
11	0x3d967bb1	0.07347811
12	0xbdb211d3	-0.08694806
13	0xbbd8e1f9	-0.006618735
14	0xbd57a8b9	-0.05265114
15	0x3d1cb1c6	0.038255475
16	0x3bf4b5f4	0.0074679796
17	0xbc9f93af	-0.0194796
18	0xbe15594b	-0.14584844
19	0xba91fa1f	-0.0011137164
20	0xbdb390fa	-0.087678865
21	0xbd2d54be	-0.042317145
22	0x3cc95e34	0.024581052
23	0x3cad26e4	0.021136709
24	0xbd399674	-0.0453095
25	0xbc92cd21	-0.017920079
26	0xbc4f3aa2	-0.0126482565
27	0x3d3b908e	0.045792155
28	0x3cf44c90	0.029821664
29	0xbd4ef540	-0.050526857
30	0xbdffd75f	-0.12492251
31	0x3c8a1b58	0.016858742
32	0xbcc4de39	-0.024031745
33	0x3c50220e	0.012703432
34	0x3c31d2ee	0.010853512
35	0x3c5995b8	0.013280325
36	0xbd1964c6	-0.03744962
37	0xbc99c87c	-0.018772356
38	0xbda07e94	-0.07836643
39	0xbd72e9d6	-0.059305035
40	0xbcca5d36	-0.02470265
41	0xbdb085e0	-0.08619285
42	0xbc5d2c13	-0.013499278
43	0xbda82f2e	-0.08212124
44	0xb9c7d46d	-0.00038114507
45	0xbca36618	-0.019946143
46	0xbd23e9c0	-0.040017843
47	0xbdf43224	-0.11923626
48	0xbdb0f733	-0.086408995
49	0xbd1cfa8c	-0.038324878
50	0xbd323b96	-0.043513857
51	0xbe2b8ea7	-0.16753636
52	0x3caa4762	0.020785991
53	0xbdfd2e43	-0.12362339
54	0xbe5acc1c	-0.21366924
55	0xbd07ddc3	-0.033170473
56	0x3d8caeb3	0.06869259
57	0xbdc464d1	-0.09589542
58	0x3b877690	0.004134007
59	0xbdbd8839	-0.09254498
60	0xbd826fcf	-0.06368982
61	0xbc5b0fee	-0.013370497
62	0xbd73f7d6	-0.059562527
63	0x3d9a3fa8	0.07531673
64	0xbd3db2b5	-0.046313006
65	0xbdfb1c77	-0.122612886
66	0x3d6915a6	0.05690541
67	0x3d8d4dfd	0.06899641
68	0xbd6f5053	-0.058426213
69	0xbd8b2381	-0.06793881
70	0xbdf86300	-0.12128258
71	0x3a5c8a00	0.00084128976
72	0xbd6209b8	-0.05518505
73	0xbd8c41a3	-0.06848457
74	0x3c25fea0	0.010131508
75	0xbe6a7925	-0.22897775
76	0xbc971fa9	-0.018447714
77	0xbdcd6867	-0.10029679
78	0xbd2f6301	-0.042819027
79	0xbdaf726b	-0.08566745
80	0x3d0a29c2	0.03373123
81	0x3d087131	0.033311073
82	0x3d50f03e	0.051010363
83	0x3d16312f	0.036668
84	0xbd72efe9	-0.059310827
85	0xbde4b332	-0.11166991
86	0xbc9f7d7c	-0.019469015
87	0x3d60d5e3	0.05489148
88	0xbdec03bf	-0.11524152
89	0xbaf04180	-0.0018330067
90	0x3d73dbbe	0.059535734
91	0xbdd2ef36	-0.10299532
92	0xbd41b76c	-0.047294065
93	0x3d7d3106	0.06181433
94	0xbd376a2d	-0.04477899
95	0xbdfcbe07	-0.12340932
96	0x3c9f0d3c	0.01941549
97	0xbc0640f0	-0.008194193
98	0xbd382722	-0.044959195
99	0x3c6283f1	0.013825403
100	0x3cc157af	0.023601381
101	0x3d9f8d7e	0.07790659
102	0xbd8ba3f0	-0.06818378
103	0x390e4600	0.00013568252
104	0xbd23ab9e	-0.03995859
105	0x3bb8aac0	0.0056355894
106	0x3bde1d9e	0.006778433
107	0xbda73de2	-0.081661
108	0x3d17730e	0.03697496
109	0xbacf199f	-0.0015800482
110	0xbe0145d2	-0.1262429
111	0x3d86fd3a	0.06591268
112	0xbce78932	-0.028263662
113	0xbdbaba8d	-0.09117613
114	0x3c4e645b	0.012597169
115	0x3d615592	0.055013247
116	0xbe039c54	-0.12852603
117	0xbd87a214	-0.06622711
118	0x3da7328d	0.08163939
119	0xbe292713	-0.16518812
120	0xbe040e75	-0.1289614
121	0xbde4b7e0	-0.11167884
122	0xbdffb0bc	-0.12484881
123	0xbd5a43a4	-0.053287163
124	0x3daec521	0.08533693
125	0xbdc76cbc	-0.09737536
126	0x3da0553f	0.078287594
127	0x3d51f1be	0.051255934
128	0xbb221069	-0.002472902
129	0xbded9164	-0.11599997
130	0x3d9d22c2	0.07672645
131	0xbf2252ae	-0.6340741
132	0x3ba02f54	0.0048884545
133	0xbd2e9193	-0.0426193
134	0xbd8bbb44	-0.068228275
135	0xbf827b88	-1.0193949
136	0xc05a09a9	-3.4068396
137	0xbf6175ec	-0.8807056
138	0xbd921f22	-0.07134844
139	0x3d94411c	0.07238981
140	0xbcf3a113	-0.029739892
141	0x3f0aaf19	0.5417343
142	0xbdf36ace	-0.11885606
143	0x3d19fe38	0.037595958
144	0xbe8e35a0	-0.27775288
145	0x3ae84ffe	0.0017724035
146	0xbdbc70a5	-0.09201173
147	0xbf46032c	-0.7734859
148	0xbdb6b792	-0.08921732
149	0xbdef6c2b	-0.11690553
150	0xbd657699	-0.056021307
151	0xbc652718	-0.013986371
152	0xbcdcc7a6	-0.026950669
153	0xbe2bd69d	-0.16781087
154	0xbcb5ee4e	-0.02220836
155	0xbd73723a	-0.059435107
156	0x3d614578	0.05499789
157	0xbdf22d32	-0.118250266
158	0xbe1b98b5	-0.15194972
159	0x3bca42a7	0.0061724964
160	0xbd843438	-0.064552724
161	0x3f2cc461	0.6748715
162	0xbe085c14	-0.13316375
163	0x3d3a297b	0.045449715
164	0xbff3d74d	-1.905008
165	0xbc0a8845	-0.008455341
166	0xbf4e0335	-0.80473644
167	0xbe532e2c	-0.20623082
168	0xbdb33bc2	-0.08751632
169	0xbdea5256	-0.114414856
170	0xbf827321	-1.0191385
171	0xbd827985	-0.06370834
172	0xbec45fdb	-0.38354382
173	0x3cf96718	0.030444667
174	0xbdb5c2fb	-0.0887508
175	0x3d0d7e0d	0.03454404
176	0xbd7389bc	-0.059457526
177	0xbe1c01ff	-0.15235136
178	0xbad2bd22	-0.0016078094
179	0xbffb0abf	-1.9612654
180	0x3d91cd7e	0.07119273
181	0xbdd41757	-0.10356014
182	0x3d90120a	0.07034691
183	0xbddcb489	-0.10776622
184	0xbef1f96a	-0.472606
185	0xc02b372f	-2.6752431
186	0xbbc18ca3	-0.005906658
187	0xbda120c9	-0.078675814
188	0xbe22b7af	-0.15890382
189	0xbd4ebac4	-0.050471082
190	0x3ded0805	0.11573795
191	0xbfef4ed5	-1.8695933
192	0xbe0cc145	-0.13745601
193	0xbe6842e9	-0.22681774
194	0xbdf3add3	-0.11898389
195	0xbbe73560	-0.0070559233
196	0x3c18c41f	0.009324103
197	0xbd0ca301	-0.03433514
198	0xbdd3e823	-0.10347011
199	0x3cace760	0.021106422
200	0xbe3d7128	-0.18500197
201	0xbd1e505a	-0.038650848
202	0xbe07aaf5	-0.13248809
203	0xbf684259	-0.9072624
204	0xbd48b575	-0.049001176
205	0xbd462e33	-0.048383903
206	0xbfd2f2e6	-1.6480377
207	0x3c4f0eba	0.012637788
208	0x3cc8c1c8	0.024506465
209	0xbd2d9406	-0.042377494
210	0xbf840f3c	-1.0317149
211	0xbc073697	-0.008252761
212	0x3b8b2ddf	0.0042474116
213	0xbfc9fb2e	-1.5779779
214	0xbd8ec96e	-0.069720134
215	0xbf862953	-1.0481361
216	0xbefbf5db	-0.4921101
217	0xbd801274	-0.0625352
218	0xbdf248f4	-0.11830321
219	0x3b22e65c	0.0024856543
220	0xbddfbc74	-0.109246165
221	0x3de4c3e6	0.11170177
222	0x3d8f657d	0.07001779
223	0x3eb85207	0.36000082
224	0xbd65f284	-0.056139484
225	0xbd8b7fce	-0.06811486
226	0xbc0e8df0	-0.008700833
227	0xc0585173	-3.3799713
228	0xbcbd19ef	-0.023083655
229	0x3de3824f	0.11108839
230	0xbd2568a0	-0.04038298
231	0x3d82884d	0.063736536
232	0xbb7c1600	-0.0038465261
233	0x3d814ef9	0.06313891
234	0xbc626f53	-0.013820487
235	0x3d6b0dc8	0.05738619
236	0x3d4fdcd2	0.0507477
237	0xbe196132	-0.14978483
238	0xbf64eb9e	-0.89422023
239	0x3d601544	0.05470778
240	0xbdc3b680	-0.095562935
241	0x3dfbe102	0.12298776
242	0x3f5632f6	0.8367151
243	0xbcd04fb8	-0.025428638
244	0xbf14622e	-0.5796231
245	0xbc7edff5	-0.015556325
246	0x3d66096a	0.05616132
247	0xbe18f57c	-0.14937395
248	0x3f27a04b	0.6547896
249	0xbe8dfe24	-0.27732956
250	0x3f1b24df	0.60603136
251	0xbdb68867	-0.089127354
252	0x3cbc0288	0.022950426
253	0xbdcab3df	-0.09897589
254	0xbcbee7a4	-0.023303814
255	0x3c0fbc10	0.008772865

fc3.bias f4 [128]
0	0x3e15160f	0.14559196
1	0x3f8862d4	1.065516
2	0x4006cde6	2.106317
3	0x408774b0	4.232994
4	0x3fbc79b9	1.4724647
5	0xbd9a4e9c	-0.07534525
6	0x3f8a0e11	1.0785543
7	0x3fa3905e	1.2778432
8	0xbd104cd0	-0.035229504
9	0x3f767959	0.9627891
10	0xbddabdb2	-0.10680713
11	0xbe2b4680	-0.16726112
12	0xbdbafa93	-0.091298245
13	0xbda4e71c	-0.08051893
14	0x3ec4758c	0.3837093
15	0xbd5e719d	-0.05430757
16	0x3f807374	1.0035233
17	0x3e9ea259	0.30983236
18	0xbd1dd8c9	-0.03853682
19	0x3f96874c	1.1760039
20	0xbc4a3ccd	-0.012343598
21	0x404f8f0a	3.2431054
22	0xbd19282b	-0.037391823
23	0xbd9c9c54	-0.07647005
24	0xbdaec791	-0.08534158
25	0xbdf0f37f	-0.11765193
26	0x3ba96ec0	0.005170673
27	0xbdab0757	-0.08351009
28	0x4046dd01	3.107239
29	0xbc262bb7	-0.010142258
30	0xbbc9a391	-0.006153532
31	0xbcf7a0bc	-0.030228011
32	0xbdca9e3e	-0.098934636
33	0x3c5b1d26	0.013373649
34	0xbd9f2d1b	-0.07772275
35	0x3d7279e3	0.05919827
36	0x40061f27	2.0956514
37	0x407f16b5	3.985761
38	0x3ed50644	0.41606343
39	0x4072020f	3.7813756
40	0xbd9c0f90	-0.07620156
41	0xbcbfdde0	-0.023421228
42	0x40380c27	2.8757417
43	0xbbeafc5d	-0.0071711973
44	0x409172f6	4.5452833
45	0xbd408c85	-0.04700901
46	0xbdd4d243	-0.10391667
47	0xbdcee469	-0.101021595
48	0x3eefdda7	0.46848795
49	0xbcd70e90	-0.026252061
50	0xbd1c3803	-0.038139354
51	0x3f8750c5	1.0571524
52	0xbcf4c5f6	-0.029879551
53	0x3d248226	0.04016318
54	0xbccec10c	-0.025238536
55	0xbf567652	-0.8377429
56	0x3f2295af	0.6350965
57	0xbdd0b6ec	-0.101911396
58	0x3e5347fa	0.20632926
59	0x3f669348	0.90068483
60	0x402888dc	2.6333532
61	0x3fe4187e	1.7819974
62	0xbd6165f2	-0.055028863
63	0x40444cb0	3.0671806
64	0x3fe83ee1	1.8144189
65	0x3fb92777	1.4465169
66	0xbd66d2ec	-0.056353495
67	0x4003c18d	2.0586884
68	0xbd0e8745	-0.03479697
69	0xbd2d1d69	-0.042264376
70	0x403ff4f3	2.9993255
71	0x3efafeb1	0.4902244
72	0xba282ea1	-0.00064156397
73	0x3f1ef00e	0.62085044
74	0x3ed0473a	0.40679342
75	0xbda168ab	-0.07881292
76	0x3f8b1149	1.086465
77	0xbcedd819	-0.029033707
78	0xbcfc94e2	-0.030832712
79	0x3fe7db82	1.8113863
80	0x3eab009e	0.33398908
81	0xbc994aff	-0.018712519
82	0xbde5183c	-0.11186263
83	0x3e227cf5	0.1586798
84	0x3fbbecbc	1.4681621
85	0x3f935c96	1.151263
86	0xbd1b8083	-0.037964355
87	0x400a134b	2.1574275
88	0xbe9a5698	-0.3014419
89	0xbc430b45	-0.011904542
90	0x4089f282	4.310853
91	0xbddbf9d8	-0.10741013
92	0xbd837f72	-0.06420793
93	0x402a25ea	2.658564
94	0x408f3b2b	4.4759727
95	0xbe047a98	-0.12937391
96	0x3f418ab8	0.75602293
97	0x400d1556	2.2044272
98	0xbca182b5	-0.019715646
99	0x3e8fbe26	0.2807476
100	0xbd379371	-0.044818345
101	0x3ad997b3	0.0016600996
102	0x3e60e5a4	0.21962601
103	0xbd55b331	-0.052172843
104	0xbd8dd4df	-0.069253676
105	0xbdaf811c	-0.085695475
106	0x40172e4a	2.3622003
107	0xbcb090a0	-0.021553338
108	0x407b08f2	3.922421
109	0x4027df40	2.623001
110	0xbd4d7a29	-0.05016533
111	0x3ff2ddfc	1.8973994
112	0xbc29f2da	-0.010372842
113	0xbdf81feb	-0.12115463
114	0xbde7ab24	-0.11311939
115	0xbd5ffbd4	-0.05468352
116	0xbd90ee05	-0.070766486
117	0xbe02431e	-0.12720916
118	0x400232e0	2.0343552
119	0x407220f5	3.7832615
120	0x3f6640b0	0.89942455
121	0x409177de	4.545882
122	0x40057d72	2.0857816
123	0x3f18e8e4	0.5973036
124	0x4004a39a	2.0724854
125	0xbf18b22a	-0.59646857
126	0xbcae4acc	-0.0212759
127	0x3f00fb19	0.50383145

fc4.weight f4 [128, 128]
0	0x3d884f53	0.06655755
1	0x3d00dbfa	0.031459786
2	0xbcfddb2e	-0.030988302
3	0xbc745fd2	-0.0149154235
4	0xbddfa781	-0.10920621
5	0xbc8cb9a8	-0.017178372
6	0x3cf3bb98	0.029752538
7	0x3d080318	0.033206075
8	0xbdb4f712	-0.088361874
9	0xbdb1b576	-0.08677189
10	0x3d8ac94f	0.06776678
11	0x3d52cbb6	0.051463805
12	0x3d940901	0.0722828
13	0xbc37fa88	-0.011229165
14	0xbcc85eb4	-0.02445922
15	0x3d266eb2	0.04063291
16	0xbc20e6e8	-0.009820677
17	0xbc1f9c00	-0.009741783
18	0xbc5f74f8	-0.013638727
19	0xbdf091c9	-0.11746556
20	0xbd9f151d	-0.07767699
21	0xbd5b8f9d	-0.053603757
22	0xbdaf7e55	-0.08569018
23	0xbda4a40f	-0.08039104
24	0x3d8f3ac7	0.06993633
25	0xbd033606	-0.032033943
26	0x3da3b09b	0.07992669
27	0xbd821dd8	-0.063533485
28	0x3cca14b0	0.024668068
29	0xbbb6e0c0	-0.0055809915
30	0xbda4a0b6	-0.08038466
31	0x3bdda2b0	0.0067637786
32	0x3cc28468	0.023744777
33	0x3a08e300	0.0005221814
34	0xbdaa2716	-0.08308236
35	0xbccf60a4	-0.025314637
36	0xbdb63ef8	-0.08898729
37	0xbda83101	-0.08212472
38	0xbc81e07c	-0.015854113
39	0x3d5e178a	0.054221667
40	0x3ccccb58	0.024999306
41	0xbd8bd73f	-0.06828164
42	0xbd9cbf90	-0.07653725
43	0xbc1df030	-0.009639785
44	0xbce71dc9	-0.028212445
45	0x3d7caf82	0.061690815
46	0x3d74e00a	0.059783973
47	0x3d11284c	0.03543882
48	0x3d830f0f	0.063993566
49	0xbd555216	-0.052080236
50	0xbda1efd3	-0.07907071
51	0x3c9fdd14	0.019514598
52	0x3d91dc2b	0.07122072
53	0x3d89ebed	0.067344524
54	0xbda9df66	-0.08294563
55	0xbdeaefdd	-0.114715315
56	0x3ce207e4	0.027591653
57	0xbda4d914	-0.08049217
58	0xbc5d0258	-0.013489328
59	0xbdedd469	-0.1161278
60	0xbd24d348	-0.040240556
61	0x3c910cc1	0.017706277
62	0x3c890244	0.016724713
63	0x3cca2cf7	0.024679644
64	0xbd40187d	-0.046898354
65	0xbd44972d	-0.047995735
66	0x3da09177	0.07840245
67	0xbca25d86	-0.019819986
68	0x3d101db8	0.035184592
69	0xbd82574e	-0.06364308
70	0x3cdadbed	0.026716197
71	0xbd66c805	-0.056343097
72	0x3cab1ae0	0.020886838
73	0xbd11089e	-0.03540861
74	0xbd9f665a	-0.07783194
75	0x3d6e33b2	0.05815477
76	0xbc2094cc	-0.009801101
77	0x3cd05b74	0.025434233
78	0xbccaab74	-0.024739958
79	0xbd4468e4	-0.047951594
80	0x3da3e52f	0.08002698
81	0xbaf40f40	-0.0018620268
82	0x3cd8711c	0.026421122
83	0xbd427edb	-0.04748426
84	0xbd7f1759	-0.062278125
85	0x3d3bbd94	0.045835093
86	0xbd5258b9	-0.051354144
87	0xbcad901f	-0.021186886
88	0x3db2fc95	0.087395824
89	0xbbf37970	-0.007430248
90	0xbd86e653	-0.065868996
91	0xbdb2dbe2	-0.087333456
92	0xbd785774	-0.060630277
93	0xbdc2ce8e	-0.095120534
94	0xbd6d1dca	-0.057889737
95	0x3d65c0e2	0.05609215
96	0xbcc4333a	-0.023950208
97	0xbdf2b0c8	-0.118501246
98	0x3d436352	0.04770214
99	0x3da96501	0.08271218
100	0xbda347e7	-0.07972699
101	0x3da6049d	0.08106349
102	0x3d2384d6	0.039921604
103	0xbc52b308	-0.012860067
104	0x3c35c048	0.011093207
105	0x3c393f18	0.011306547
106	0xbd463287	-0.04838803
107	0x3c9e03c0	0.019288898
108	0x3d5717b7	0.05251285
109	0x3d464bf1	0.048412267
110	0xbd370671	-0.044683877
111	0xbbb88105	-0.0056306147
112	0xbd31fa97	-0.04345187
113	0xbd6dc6ca	-0.05805091
114	0xbd4153a1	-0.047198895
115	0xbd75d728	-0.060019642
116	0x3d9d08dd	0.07667706
117	0xbcb31e28	-0.021864966
118	0x3ccf30f1	0.025291892
119	0xbdbd90eb	-0.092561565
120	0xbd9a2cfd	-0.07528112
121	0xbdeef6b8	-0.116681516
122	0xbdd98e00	-0.106227875
123	0x3b4c8f20	0.0031213239
124	0xbc6d3f47	-0.0144804185
125	0xbd5995d9	-0.05312142
126	0xbd8cd859	-0.068772025
127	0x3d45f7d3	0.048332047
128	0x3cbb19c5	0.022839436
129	0xbda4546b	-0.08023914
130	0xbf68f707	-0.91001934
131	0xbed2b670	-0.41154814
132	0xc053048e	-3.297153
133	0xbcdc1c26	-0.026868891
134	0xbdbac922	-0.09120394
135	0xbea78a80	-0.32722855
136	0xbc1321f0	-0.008980259
137	0xbdd9a430	-0.106270194
138	0xbda39986	-0.07988267
139	0x3d1b0632	0.037847705
140	0xbd009f1f	-0.03140175
141	0x3dcf0399	0.10108108
142	0xbd464a9c	-0.048410997
143	0x3d36ecf2	0.044659562
144	0xc06cbc02	-3.698975
145	0xbdd640bb	-0.10461565
146	0x3c9e5e5c	0.019332103
147	0x3d57e378	0.052707165
148	0x3dcaabdc	0.09896061
149	0x3eb26bdf	0.34847924
150	0xbbedc030	-0.0072555766
151	0x3cc62120	0.024185717
152	0xbc83ae20	-0.01607424
153	0xbd1f4ad3	-0.038889717
154	0xbd6f6e6a	-0.05845491
155	0xbc942bb8	-0.018087253
156	0x3f2d09cc	0.67593074
157	0xbdacce95	-0.0843784
158	0xbd329d18	-0.043606848
159	0xbda79e28	-0.08184463
160	0x3d8bf603	0.068340324
161	0xbd796438	-0.06088659
162	0xbd8626a7	-0.06550341
163	0xbd066a20	-0.032816052
164	0x3f625030	0.88403606
165	0xbebc5149	-0.36780766
166	0x3d9352e5	0.07193545
167	0xbec040b9	-0.3754938
168	0x3d1bdb9e	0.03805124
169	0x3d7d2076	0.061798535
170	0x3fe90d64	1.8207211
171	0xbd8f2d1a	-0.06991024
172	0xbe8c4ae3	-0.27400884
173	0x3cc12cc4	0.023580916
174	0xbc6b6fc8	-0.014369912
175	0x3dd03e71	0.1016816
176	0x3d95a2c0	0.07306433
177	0x3dac847c	0.08423707
178	0xbdabb18d	-0.083834745
179	0x405d3d49	3.4568655
180	0x3ce2bcf8	0.027677998
181	0x3d8f73c5	0.07004503
182	0xbdabf48a	-0.083962515
183	0x3fa352f9	1.2759696
184	0x3db0cbcf	0.086326234
185	0xbd99eb9d	-0.07515643
186	0x3d34631e	0.044039838
187	0x3c7a556c	0.015279155
188	0xbf5d3e8f	-0.8642358
189	0x3fa0cbcb	1.2562193
190	0xbdb360cd	-0.08758698
191	0xbf894465	-1.0723997
192	0xbd8c3876	-0.068467066
193	0x3fd835b2	1.6891387
194	0x3ffd7ed0	1.9804325
195	0x40325d8d	2.78696
196	0xbd9e1ad2	-0.07719959
197	0xbdc93f27	-0.098264985
198	0x3f3a0a37	0.72671837
199	0x3daace09	0.08340079
200	0xbd0a9e8a	-0.0338426
201	0xc08d91a0	-4.4240265
202	0x3e25e48e	0.16200468
203	0xbcbedeec	-0.023299657
204	0x3ceb6dbd	0.02873885
205	0x3db186a5	0.086682595
206	0xbce5184c	-0.027965687
207	0x3d634ddd	0.055494178
208	0xbcd16f1f	-0.025565682
209	0xbd899fa2	-0.06719901
210	0xbbefc120	-0.0073167235
211	0x3d65fd0f	0.05614954
212	0xbde508de	-0.11183332
213	0x3b89a155	0.0042001405
214	0xbd0dbaf1	-0.03460211
215	0x4000f380	2.014862
216	0xbe1ca20f	-0.15296195
217	0x3d142022	0.036163457
218	0xbea867b2	-0.32891613
219	0x3d287842	0.04113031
220	0xbd76147d	-0.060078133
221	0x3de0b467	0.10971909
222	0xbe40d21a	-0.18830147
223	0xbd073e2e	-0.033018284
224	0xbd54dd33	-0.051968765
225	0x3d9556f7	0.07291978
226	0x3d6c8b1e	0.05774986
227	0x3e25734c	0.16157264
228	0xbdb10950	-0.08644354
229	0xbdb22aec	-0.08699593
230	0x4037af5a	2.8700776
231	0xc077008e	-3.8594089
232	0x3dc6f847	0.09715324
233	0xbc3e6208	-0.011620052
234	0xc0164b83	-2.3483589
235	0x3dc0de63	0.09417417
236	0xbf047b83	-0.51750964
237	0xbf42afec	-0.76049685
238	0xbbdf04b0	-0.0068059787
239	0xbe20a47e	-0.15687749
240	0x3d68928e	0.05678039
241	0xbd8a3c42	-0.067497745
242	0xbdcd162b	-0.10013994
243	0xbc24dbd8	-0.01006218
244	0x3c883924	0.01662881
245	0xbd28d348	-0.04121712
246	0x3f39a2ab	0.72513837
247	0xbeea3613	-0.4574438
248	0x3fd3629a	1.6514466
249	0xbe4e002a	-0.2011725
250	0x3fef508d	1.8696457
251	0x3ff3e276	1.9053485
252	0x3f165859	0.5872856
253	0x4082eebd	4.091643
254	0x3d8423df	0.06452154
255	0x3f0b9bf3	0.54534835

fc4.bias f4 [128]
0	0xbda62f63	-0.08114507
1	0x3f17faf9	0.5936733
2	0x40fb6dad	7.857138
3	0x40aef74e	5.4676886
4	0x3d40bf8d	0.047057677
5	0x40a97da6	5.296588
6	0xbbc77915	-0.006087432
7	0x40120e5b	2.2821262
8	0xbc23a62f	-0.009988352
9	0x40e8bc94	7.27302
10	0xbde31dad	-0.110896446
11	0xbd903473	-0.07041254
12	0x3bf9d2db	0.007624013
13	0x40ae8dbf	5.454803
14	0x3b4e91bc	0.003151997
15	0xbd0a88b3	-0.033821773
16	0x40b86e32	5.7634516
17	0x3df5a8b8	0.11995071
18	0x40b87b2c	5.7650356
19	0x3f9a7a00	1.2068481
20	0x3f133c45	0.5751384
21	0xbdb043ce	-0.08606683
22	0x40cf53d6	6.478984
23	0x3d0f9d5a	0.03506217
24	0xbc1cefa1	-0.009578616
25	0x4083a402	4.1137705
26	0x3b13a18b	0.0022526707
27	0x3ffe267e	1.9855497
28	0xbf000005	-0.5000003
29	0xbdbebb81	-0.09313107
30	0xbd7df498	-0.06200084
31	0x4005cd92	2.090672
32	0xbe015b76	-0.12632546
33	0xbd4353b4	-0.047687247
34	0x3e13e02d	0.14440985
35	0x3d70ac65	0.05875816
36	0xbd9aa248	-0.07550484
37	0x3c16ae74	0.009196866
38	0x3f257c37	0.6464266
39	0x404c6b8d	3.1940644
40	0x3e177dab	0.14794032
41	0xbda2f75d	-0.07957337
42	0x3d284c8c	0.041088626
43	0x3b0f6eb0	0.0021886043
44	0x4056baea	3.3551583
45	0x40d42b6d	6.630301
46	0xbd2713f4	-0.040790513
47	0xbd700af7	-0.058604207
48	0xbdf2fc60	-0.11864543
49	0x40ee39c3	7.444551
50	0x3e164544	0.1467486
51	0x3e98af9b	0.29821476
52	0xbd5463bd	-0.05185293
53	0x3cf03800	0.029323578
54	0xbdc1edc9	-0.09469182
55	0xbbcc6d8d	-0.0062386454
56	0x3f2c21c5	0.6723903
57	0x3f953b6e	1.1658762
58	0xbd974f7c	-0.07388207
59	0xbdc3866a	-0.09547122
60	0x3d179767	0.037009623
61	0xbd209a0c	-0.03920941
62	0x3e8e249d	0.2776231
63	0x3f1776fb	0.59165925
64	0xbdc233fe	-0.09482573
65	0x3f266d1a	0.65010226
66	0x3d1914c3	0.037373316
67	0x3ec83151	0.39100125
68	0x3e9e4746	0.30913752
69	0x3f2d7768	0.67760324
70	0x3e4b5638	0.19857109
71	0x3e8b7503	0.2723771
72	0x3cc7824a	0.024354119
73	0x40b7286e	5.7236853
74	0x3ef0993a	0.46991903
75	0x40ce4998	6.4464836
76	0x40b6353c	5.6939983
77	0x3ffdb238	1.9820013
78	0xbe0f1cca	-0.13975826
79	0x4000fee1	2.0155566
80	0xbf21d82b	-0.6322047
81	0x3e9f54cc	0.31119382
82	0xbcff8372	-0.031190608
83	0xbdcc450b	-0.099741064
84	0xbd1c2bdd	-0.03812777
85	0xbe3fc51b	-0.18727534
86	0x3cae9ff3	0.021316504
87	0xbdece98b	-0.11567982
88	0x3d7497e2	0.05971516
89	0x40a2174c	5.065344
90	0xbda0036b	-0.07813152
91	0xbdd2904a	-0.10281427
92	0xbd42a752	-0.04752285
93	0x3dd35cf3	0.10320463
94	0x4024acba	2.5730424
95	0x40cbe922	6.3722086
96	0x40d98e29	6.7986035
97	0x3eeffb7a	0.4687155
98	0x40d44593	6.633493
99	0x3f4c3cc1	0.79780203
100	0xbe08b06e	-0.13348553
101	0xbcaf6961	-0.021412553
102	0xbbfde880	-0.0077486634
103	0xbc3f186b	-0.011663537
104	0xbdb9c54a	-0.09070833
105	0xbd2cc11b	-0.042176347
106	0xbc8d5c2c	-0.017255865
107	0x3ed557d1	0.4166856
108	0x40f4288f	7.629951
109	0xbccf334e	-0.025293019
110	0xbd38db14	-0.045130804
111	0xbcb33fcf	-0.021881012
112	0xbd8eb878	-0.06968778
113	0x401393e6	2.305902
114	0x3f1a1daf	0.60201544
115	0x4050f21f	3.264778
116	0x3d13f4b8	0.036122054
117	0x3ed5246d	0.41629353
118	0x3dae424e	0.0850874
119	0x3d52fdaa	0.051511444
120	0xbdc3c232	-0.09558524
121	0x3d1077d4	0.035270527
122	0x3c0787d2	0.008272128
123	0x3ca5d02b	0.020240864
124	0xbdde9467	-0.10868149
125	0x3a9dbc6a	0.0012034301
126	0x3ef4c022	0.47802836
127	0xbd3ad03b	-0.04560874

fc5.weight f4 [12, 128]
0	0xbdb33d4d	-0.087519266
1	0x405f3bf8	3.4880352
2	0x3fd85240	1.6900101
3	0x4009f193	2.1553695
4	0xbc6958e9	-0.014242389
5	0x3fc7697b	1.5579065
6	0x3ab3e02d	0.0013723426
7	0x40eaeaf4	7.341181
8	0xbcc29976	-0.023754817
9	0x3fe11f6a	1.7587712
10	0x3d494f92	0.04914815
11	0x3da25615	0.07926575
12	0xbcc36071	-0.023849698
13	0x40f5b270	7.678032
14	0x3dddf17a	0.108370736
15	0x3d5b6191	0.053559843
16	0x401e6547	2.4749315
17	0x3b954c3b	0.0045562065
18	0x3fda5342	1.7056658
19	0x3db3ab7c	0.087729424
20	0x3f49fa68	0.78897715
21	0x3d624356	0.055239998
22	0x3fd680b4	1.6758027
23	0x40176cb8	2.3660107
24	0x3db21e3f	0.08697175
25	0x4032b13f	2.7920682
26	0x3f9080e9	1.128934
27	0x403ac494	2.9182482
28	0x40b52249	5.660435
29	0x3c1d3c09	0.009596833
30	0x3d86bb75	0.06578723
31	0x403394c9	2.8059561
32	0xbd925336	-0.071447775
33	0xbc4e60ac	-0.012596291
34	0x3c979bc9	0.018506901
35	0xbbcea839	-0.006306675
36	0x3da270c5	0.07931665
37	0x3dd9e4c1	0.106393345
38	0x3d736420	0.05942166
39	0x40ddc28f	6.93
40	0x3d533d51	0.051572148
41	0x3d394518	0.04523191
42	0xbd8eec59	-0.069786735
43	0xbda10c13	-0.07863631
44	0x4049b957	3.1519372
45	0x3fd69712	1.6764853
46	0xbd5c679b	-0.053809743
47	0xbd34ee81	-0.044172768
48	0xbd9904a8	-0.07471591
49	0x405c5515	3.442693
50	0x3dabdbc7	0.083915286
51	0x3d85a7f4	0.06526175
52	0x3e26e60d	0.16298695
53	0xbd30f8de	-0.04320609
54	0x3d857bbf	0.06517743
55	0x3c8a8f30	0.01691398
56	0x3d9e0de0	0.0771749
57	0x3be80636	0.0070808185
58	0x3d7bbe7a	0.06146095
59	0xbd919750	-0.07108939
60	0x3c7dfdf2	0.01550244
61	0xbceb72b8	-0.028741226
62	0x3f05d376	0.5227579
63	0x3df3bef8	0.11901659
64	0x3d6f67aa	0.05844847
65	0x4068144d	3.626239
66	0x3c937b8b	0.018003246
67	0xbf4af7c4	-0.7928431
68	0x3f64029a	0.8906647
69	0x3daaf772	0.08347978
70	0x3f5af695	0.85532504
71	0x3d376d4f	0.04478198
72	0xbc04c848	-0.008104391
73	0x400f1f23	2.2362754
74	0x40610765	3.5160763
75	0x400d4ec4	2.2079325
76	0x3f91969b	1.1374086
77	0x40122b36	2.2838874
78	0x3c64c801	0.0139637
79	0x3f2a6970	0.66567135
80	0x3e2a1c7f	0.16612433
81	0x3ea7bdb2	0.32761914
82	0xbda38bc9	-0.07985646
83	0xbd9108f2	-0.07081784
84	0xbc95cd9d	-0.01828652
85	0x4055253a	3.3303971
86	0x3d1186f3	0.03552909
87	0x3d3f679d	0.046729673
88	0xbca720c2	-0.020401362
89	0x40c15c70	6.042534
90	0xbd252709	-0.04032043
91	0x3c6e02cd	0.014527035
92	0x3de37e8b	0.111081205
93	0xbc3d1e49	-0.011542865
94	0x40718fc8	3.7744007
95	0x40080c24	2.125741
96	0x400fcbc7	2.2468126
97	0x3ccef32a	0.025262434
98	0x401adad3	2.419606
99	0x40627e01	3.5389407
100	0x3db9e2c4	0.09076455
101	0xbcad3256	-0.021142166
102	0x3d1ed9ae	0.038781814
103	0xbd007d5b	-0.03136955
104	0xbc7e3a2f	-0.015516802
105	0xbd833419	-0.06406421
106	0x3d8bbee2	0.068235174
107	0x40c4ba89	6.1477704
108	0x40088e54	2.133687
109	0xbd90094b	-0.070330225
110	0x3d79f51a	0.061024763
111	0x3e1c41c5	0.15259464
112	0xbd830791	-0.063979276
113	0x40b4d825	5.651385
114	0x406c9380	3.6965027
115	0x407995ff	3.89978
116	0x3db0ee06	0.08639149
117	0x3ef50637	0.47856304
118	0x3d2e7365	0.042590518
119	0x3b40d079	0.0029421134
120	0x3d0aadc6	0.03385713
121	0xbd54b0c0	-0.051926374
122	0x3d8bb775	0.06822101
123	0x3ae9e333	0.00178442
124	0xbd8ac129	-0.067751236
125	0xbd34b126	-0.044114254
126	0x3dfa5d5e	0.1222484
127	0xbcf539cb	-0.029934784
128	0x3d6ad856	0.05733522
129	0x405f3d3d	3.4881127
130	0x3fcfd601	1.6237184
131	0x405bda33	3.4351928
132	0xbd19ad6e	-0.03751891
133	0x401cbad8	2.448904
134	0x3d8ddad5	0.069265045
135	0x40e919e4	7.2844105
136	0x3d3d9fc0	0.046294928
137	0x3fe9bf37	1.8261479
138	0xb9df6700	-0.00042610615
139	0x3cc23c55	0.02371041
140	0x3cd72b25	0.02626569
141	0x410d7a02	8.842287
142	0x3d9aba60	0.075550795
143	0xb937ffe7	-0.00017547571
144	0x401846df	2.3793256
145	0xbd32d395	-0.04365881
146	0x3fdbf992	1.7185538
147	0x3e76163d	0.2403192
148	0x3f3c4cad	0.735545
149	0xbccfe3a5	-0.025377104
150	0x4002c86a	2.0434823
151	0x410deda1	8.870515
152	0xbc3ad91f	-0.011404305
153	0x40837845	4.1084313
154	0xbe8b03c2	-0.27151304
155	0x403207fe	2.7817378
156	0x4069d175	3.6534092
157	0xbd00c32d	-0.031436134
158	0xbdb00234	-0.0859417
159	0x405d6842	3.4594884
160	0x3d9827bf	0.07429456
161	0x3d11c02e	0.035583667
162	0x3ce1ef06	0.027579796
163	0xbd2040dc	-0.039124355
164	0x3d854be9	0.06508619
165	0x3d267e8c	0.04064803
166	0x3e3afd92	0.18260792
167	0x4105be33	8.358935
168	0x3cbdf55e	0.02318829
169	0xbc7f7bbb	-0.0155934645
170	0x3db37490	0.08762467
171	0x3d96184b	0.07328852
172	0x404c8907	3.1958635
173	0x3fc13238	1.509345
174	0xbd706d8c	-0.058698222
175	0xbd5e3c9a	-0.054257013
176	0xbd780cc3	-0.060559046
177	0x400d7954	2.2105303
178	0xbc3cf327	-0.011532581
179	0x3d4974d0	0.049183667
180	0x3bbabc77	0.0056987363
181	0xbd1d68ae	-0.03842991
182	0xbd5a2860	-0.05326116
183	0xbc83eb43	-0.016103392
184	0x3e15a51e	0.14613768
185	0x3d532ef9	0.05155847
186	0xbd845aa1	-0.064625986
187	0xbd9e4f61	-0.07729984
188	0xbc7146b4	-0.01472633
189	0x3c8ff6c6	0.017573725
190	0x3f231619	0.63705593
191	0x3d7c5b91	0.061610762
192	0x3d23b31d	0.039965738
193	0x40abb65a	5.3660097
194	0x3d99c346	0.075079486
195	0x3ea49676	0.32146043
196	0x407df9f0	3.96838
197	0x3e5078ef	0.20358633
198	0x403bf987	2.937105
199	0x3d767a3c	0.060175166
200	0xbd0743c7	-0.033023622
201	0x40069ea6	2.1034331
202	0x4026cfc1	2.6064303
203	0x40021743	2.0326698
204	0x3f877402	1.0582278
205	0x3f7372a6	0.95096815
206	0x3c58097e	0.013185857
207	0x3f329ae9	0.69767624
208	0x3dc4ffe2	0.09619118
209	0x406f20be	3.7363734
210	0x3d9021cd	0.07037697
211	0x3d8fbc75	0.07018367
212	0xbc9cdcf5	-0.01914833
213	0x4062ec08	3.5456562
214	0x3db910d9	0.090364166
215	0x3d409cd1	0.04702455
216	0x3d1b76db	0.037955146
217	0x40db19d6	6.846904
218	0xbc87fa57	-0.016598864
219	0x3ce4b2d8	0.02791731
220	0xbcb229a1	-0.021748366
221	0x3d8029a1	0.0625794
222	0x401c236c	2.439662
223	0x3ffdadad	1.9818627
224	0x4009aca9	2.1511633
225	0x3db2e3c2	0.087348476
226	0x4010ca58	2.26235
227	0x40cb7a18	6.358654
228	0x3d8f2fdc	0.0699155
229	0x3dbad17c	0.09121987
230	0xbd7d7b90	-0.061885417
231	0x3d3f1075	0.046646554
232	0x3ca497b4	0.020091869
233	0x3c87763c	0.01653587
234	0x3bd0bb1a	0.0063699605
235	0x40ada6c8	5.426609
236	0x4004e095	2.0762074
237	0xbd5f6366	-0.054538153
238	0xbc59f818	-0.013303779
239	0xbf522c4d	-0.8209885
240	0xbd9fc3e3	-0.07801034
241	0x40b4207b	5.628965
242	0x408ed730	4.463768
243	0x40430fb6	3.047834
244	0x3c93d468	0.01804562
245	0x3f366f42	0.71263516
246	0x3d648c75	0.055798013
247	0xbd1b381b	-0.037895303
248	0x3d6c667e	0.05771493
249	0x3ca2e99c	0.019886784
250	0x3cae9b80	0.021314383
251	0x3d5a8d86	0.053357624
252	0x3d4dfaee	0.050288133
253	0xbb1c59b6	-0.0023857183
254	0x3d0546d4	0.03253825
255	0xbd246b4d	-0.040141392

fc5.bias f4 [12]
0	0x4115b07b	9.355586
1	0x40bfdf93	5.996042
2	0x413b44f0	11.70433
3	0x41a718e3	20.887152
4	0x400edfd2	2.232411
5	0xc1a24210	-20.282257
6	0xc0f79125	-7.736468
7	0xc133d68c	-11.23988
8	0x3f9c0450	1.2188816
9	0xbdbb5b98	-0.091483295
10	0x3f664677	0.8995127
11	0xc14af7d1	-12.685502
